…
,"elapsed":5,"user":{"displayName":"Daffa Rizki","photoUrl":"https://lh3.googleusercontent.com/a-/AOh14GiO8ZF06hlqkKJVtO2Rm1cBzF37XQAufwXDgzK0Tg=s64","userId":"12805345379547597214"}},"outputId":"6c04cd96-501f-4298-8b59-0ce9410400c5"},"source":["cnn_model.summary()"],"execution_count":15,"outputs":[{"output_type":"stream","text":["Model: \"sequential_1\"\n","_________________________________________________________________\n","Layer (type)                 Output Shape              Param #   \n","=================================================================\n","conv2d (Conv2D)              (None, 26, 26, 32)        320       \n","_________________________________________________________________\n","max_pooling2d (MaxPooling2D) (None, 13, 13, 32)        0         \n","_________________________________________________________________\n","dropout (Dropout)            (None, 13, 13, 32)        0         \n","_________________________________________________________________\n","flatten (Flatten)            (None, 5408)              0         \n","_________________________________________________________________\n","dense_3 (Dense)              (None, 128)               692352    \n","_________________________________________________________________\n","dropout_1 (Dropout)          (None, 128)               0         \n","_________________________________________________________________\n","dense_4 (Dense)              (None, 10)                1290      \n","=================================================================\n","Total params: 693,962\n","Trainable params: 693,962\n","Non-trainable params: 0\n","_________________________________________________________________\n"],"name":"stdout"}]},{"cell_type":"code","metadata":{"colab":{"base_uri":"https://localhost:8080/"},"id":"dT6vkUwnF7Bq","executionInfo":{"status":"ok","timestamp":1623
…
apsed":479,"user":{"displayName":"Daffa Rizki","photoUrl":"https://lh3.googleusercontent.com/a-/AOh14GiO8ZF06hlqkKJVtO2Rm1cBzF37XQAufwXDgzK0Tg=s64","userId":"12805345379547597214"}},"outputId":"0c48b7f1-2151-4eee-e6c7-828c6db2efbd"},"source":["cnn_model_2.summary()"],"execution_count":21,"outputs":[{"output_type":"stream","text":["Model: \"sequential_2\"\n","_________________________________________________________________\n","Layer (type)                 Output Shape              Param #   \n","=================================================================\n","conv2d_1 (Conv2D)            (None, 26, 26, 32)        320       \n","_________________________________________________________________\n","dropout_2 (Dropout)          (None, 26, 26, 32)        0         \n","_________________________________________________________________\n","conv2d_2 (Conv2D)            (None, 24, 24, 64)        18496     \n","_________________________________________________________________\n","max_pooling2d_1 (MaxPooling2 (None, 12, 12, 64)        0         \n","_________________________________________________________________\n","dropout_3 (Dropout)          (None, 12, 12, 64)        0         \n","_________________________________________________________________\n","flatten_1 (Flatten)          (None, 9216)              0         \n","_________________________________________________________________\n","dense_5 (Dense)              (None, 64)                589888    \n","_________________________________________________________________\n","dense_6 (Dense)              (None, 128)               8320      \n","_________________________________________________________________\n","dense_7 (Dense)              (None, 10)                1290      \n","=================================================================\n","Total params: 618,314\n","Trainable params: 618,314\n","Non-trainable params: 0\n","_________________________________________________________________\n"],"name":"stdout"}]},{"cell_type":"code","metadata":{"id":"dOZDtMZBHehS","executionInfo":{"status":"ok","timestamp":1623770680900,"user_tz":-420,"elapsed":348,"user":{
…
apsed":335,"user":{"displayName":"Daffa Rizki","photoUrl":"https://lh3.googleusercontent.com/a-/AOh14GiO8ZF06hlqkKJVtO2Rm1cBzF37XQAufwXDgzK0Tg=s64","userId":"12805345379547597214"}},"outputId":"7ae871b0-4cd8-4c2c-8e45-8f7406558ae6"},"source":["cnn_model_3.summary()"],"execution_count":28,"outputs":[{"output_type":"stream","text":["Model: \"sequential_3\"\n","_________________________________________________________________\n","Layer (type)                 Output Shape              Param #   \n","=================================================================\n","conv2d_3 (Conv2D)            (None, 26, 26, 32)        320       \n","_________________________________________________________________\n","conv2d_4 (Conv2D)            (None, 24, 24, 64)        18496     \n","_________________________________________________________________\n","max_pooling2d_2 (MaxPooling2 (None, 12, 12, 64)        0         \n","_________________________________________________________________\n","conv2d_5 (Conv2D)            (None, 10, 10, 128)       73856     \n","_________________________________________________________________\n","max_pooling2d_3 (MaxPooling2 (None, 5, 5, 128)         0         \n","_________________________________________________________________\n","dropout_6 (Dropout)          (None, 5, 5, 128)         0         \n","_________________________________________________________________\n","flatten_2 (Flatten)          (None, 3200)              0         \n","_________________________________________________________________\n","dense_8 (Dense)              (None, 128)               409728    \n","_________________________________________________________________\n","dense_9 (Dense)              (None, 256)               33024     \n","_________________________________________________________________\n","dense_10 (Dense)             (None, 10)                2570      \n","=================================================================\n","Total params: 537,994\n","Trainable params: 537,994\n","Non-trainable params: 0\n","_________________________________________________________________\n"],"name":"stdout"}]},{"cell_type":"code","metadata":{"id":"kSZsfs9uHo6o","executionInfo":{"status":"ok","timestamp":1623776624051,"user_tz":-420,"elapsed":314,"user":{
…
